UR5/tictactoe_dqn.pth (torch, 78532 bytes, 6 tensors)

layers.0.weight f4 [128, 9]
000000 65 7d 22 3f 11 3d 23 3e 4a ea 30 be 28 f9 bc 3e
       0.63472587 0.15941264 -0.17276874 0.3690884
000010 07 7f 3b bc 27 8f d1 3e 45 e7 30 bd c8 67 12 3e
       -0.01144386 0.4092953 -0.043189306 0.14297402
000020 f3 c4 8d 3d dc 57 87 3e 7b 0f 0d 3f 54 51 ce be
       0.06922331 0.2643422 0.55101746 -0.40296423
000030 fb c5 37 be 9d 88 04 3f a5 a0 06 3f 03 25 16 3e
       -0.17946617 0.51770955 0.52588874 0.14662556
000040 a3 50 64 3e ff 46 5b bd 74 e6 b4 be b8 20 c8 be
       0.22296385 -0.053534504 -0.35332072 -0.39087462
000050 b1 bc 14 bf 08 98 fc be df ec 06 bf 88 52 a5 be
       -0.5810042 -0.4933474 -0.52705187 -0.3228953
000060 53 ce 4b be 46 8a 00 bf 65 c0 b5 be 43 0c 3c bf
       -0.19902925 -0.5021099 -0.35498348 -0.7345621
000070 05 4e 84 3d b1 74 fb be 91 81 09 bd 8f d3 16 bd
       0.064601935 -0.49112466 -0.03357083 -0.03682285
000080 51 8f a6 3d bb a8 ec 3d 27 82 8e be 70 f6 ab 3e
       0.08132804 0.1155562 -0.27833673 0.33586454
000090 b0 bc 74 be c5 60 ac 3d bc 54 5b be b5 ac 2a 3f
       -0.23900104 0.08416895 -0.21419042 0.6666978
0000a0 3e 2d c7 3e 4f 13 5f 3d f4 a4 0e 3f d0 d2 16 3e
       0.38901705 0.054461773 0.5572045 0.14728856
0000b0 02 7e 7d 3e 29 f8 30 3e 4b 5c df bd 7c b6 5a bd
       0.247551 0.17282166 -0.10906275 -0.053396687
0000c0 e7 5f 06 be 94 cc d7 3d e7 14 a0 3e df 70 0f bf
       -0.13122521 0.10537067 0.31265947 -0.560316
0000d0 01 82 65 3e fe 2a 20 be a3 20 8a 3e 62 83 3c be
       0.22412874 -0.156414 0.26978025 -0.18409494
0000e0 99 46 97 bd ef 35 da be 04 74 05 3f 46 6e bb be
       -0.07386512 -0.42619273 0.5213015 -0.3660757
0000f0 a5 7f f0 be c3 02 d0 bc f1 88 87 bd 56 09 95 be
       -0.46972385 -0.025391942 -0.066179164 -0.29108685
000100 4e e3 5c be f3 c1 89 be 23 1d 8f 3e ac ac ba 3e
       -0.21571085 -0.26905784 0.27951917 0.36459863
000110 6d 23 1c 3d de fd a9 bd fe 5f 54 3e 1b 2d c2 3e
       0.038119722 -0.083003744 0.20739743 0.37925038
000120 d6 38 1e bf 1c 2e e7 be d1 da dc be fe bd 3d be
       -0.61805475 -0.45152366 -0.43135694 -0.18529508
000130 fc 40 36 3f 62 b5 0a bf 96 f9 01 be f7 fa 9c bd
       0.7119291 -0.5418302 -0.12692866 -0.07665055
000140 a1 98 e1 be 48 00 75 3d 7b 07 37 be 93 86 1f 3e
       -0.4406176 0.05981472 -0.17873947 0.1557868
000150 74 26 6c be b9 82 be bc 34 b2 b8 3d 48 55 a3 be
       -0.23061544 -0.023255693 0.090183645 -0.31901002
000160 32 99 0b be 67 d3 f5 be 2b 5e 4b be c0 80 26 3e
       -0.13632658 -0.4801285 -0.19860141 0.16260052
000170 66 30 c1 be e3 cf c3 3e 75 64 88 be 5d d1 a2 3d
       -0.37732238 0.38244542 -0.26639143 0.07950089
000180 88 8d cd 3e 4e 6c 96 3e 85 52 28 be c8 e8 0e be
       0.40147042 0.29379505 -0.16437729 -0.13955986
000190 c4 e4 c0 be a4 ba 0f be 6a 9d 5c 3e d3 29 ee 3d
       -0.37674534 -0.14036041 0.21544424 0.11629071
0001a0 2d 32 42 bf a1 0e 09 bf 98 2b ac be 4d 5d 85 be
       -0.7585781 -0.53537947 -0.3362701 -0.26047745
0001b0 0a bf 57 bf cd 9c 7b 3e fb 8d 99 3e 72 f2 96 3e
       -0.8427588 0.24571534 0.29991135 0.29481846
0001c0 82 d9 42 3e a3 e3 da 3e fb 6d 03 3f 5d ca df bd
       0.19028285 0.42751798 0.5133969 -0.109272696
0001d0 c7 69 8f 3d fb 14 9c bd 1b 65 c5 bc 12 91 27 bf
       0.07002597 -0.07621189 -0.024096062 -0.65455735
0001e0 5a 20 b0 3e 5e a3 09 3e 2d f4 96 3e 29 2c 34 be
       0.34399682 0.13441226 0.29483166 -0.17594971
0001f0 37 d1 dc bc b6 5e b7 3e 87 87 b6 3e 50 bf 42 ba
       -0.02695523 0.35814446 0.35650274 -0.00074290205
000200 fa 7a 34 bf 8e 40 df bd 56 67 42 3e f6 7c 72 be
       -0.7050015 -0.10900985 0.18984732 -0.23680481
000210 87 71 77 3c f6 dc 94 3d 4d ca 13 bd 0f 0e e5 bd
       0.015102751 0.072687075 -0.0360816 -0.11184322
000220 90 03 66 3e 36 ba bb 3e c2 e9 88 3e ad 5d 14 be
       0.22462296 0.36665505 0.26740843 -0.1448886
000230 70 08 53 3e 05 6f f1 3e 15 e8 53 3e 79 80 83 3e
       0.20608687 0.47155014 0.20694001 0.25683954
000240 4c ed 1f bf d4 9c 2e 3d b5 d5 47 3e 2c 49 45 be
       -0.6247146 0.04263003 0.19515117 -0.19266194
000250 e8 49 3e 3e 92 f7 2f be 26 a0 ad be bc 34 22 3e
       0.1858288 -0.17184284 -0.33911246 0.15840429
000260 dc 28 e1 3e 45 e3 a2 3e 14 23 b7 be 41 f7 98 be
       0.43976486 0.31814018 -0.3576895 -0.2987614
000270 11 2b 3c 3e 12 af 5c bf 6c 78 31 be fa 42 5d be
       0.18375804 -0.86204636 -0.17331094 -0.21607581
000280 07 c5 f1 be 90 42 39 be fb a3 18 be f6 0f bd 3e
       -0.47220632 -0.18091798 -0.14906304 0.3692624
000290 25 30 b7 3e fd 9b 2d 3e fc c7 1b be c0 94 b0 3e
       0.3577892 0.16954036 -0.15213007 0.34488487
0002a0 0c 7b 87 3e b7 12 93 3e e5 50 60 3e e3 cb 27 3f
       0.26461065 0.28725216 0.21905859 0.6554548
0002b0 e1 3f 2c bf 6f 2f 00 bf 0f 30 4f be 17 25 bc 3e
       -0.6728497 -0.5007238 -0.20233177 0.36747047
0002c0 e1 05 bf be 4f 2a 2f be 64 83 63 3b 02 4c d4 bc
       -0.37309173 -0.17105983 0.0034715766 -0.02591515
0002d0 28 52 e7 be 00 d4 ba be e7 1e c7 3d 66 f1 b4 bd
       -0.45179868 -0.36489868 0.09722691 -0.088351056
0002e0 e6 7c d7 3c 13 c1 49 bc c0 a2 45 3f 0f 91 dd be
       0.026304673 -0.012314099 0.7720146 -0.43274733
0002f0 15 2e 07 be 24 56 f2 3e 16 5c ff 3e 89 91 d4 3e
       -0.13201173 0.47331345 0.49874943 0.41517285
000300 57 cb e6 3e 41 cf 09 3f 75 a6 b9 3e 24 41 ed 3e
       0.4507701 0.5383187 0.3625981 0.4633876
000310 ff ec a2 3e a8 6c fa 3e 2a 01 16 3d 8d ab c7 3e
       0.3182144 0.48911023 0.036622204 0.3899807
000320 95 e8 ad 3e a7 71 de be 1a 33 49 3d 99 42 b4 be
       0.33966509 -0.43446085 0.049121 -0.3520706
000330 0e d2 10 3f ec bb 84 3e 4b ae 1d be 11 5d bb be
       0.5657052 0.25924623 -0.15398519 -0.36594442
000340 60 c9 56 be 1f 4f 90 be d9 98 9e bd 32 de e3 3d
       -0.20975256 -0.28185365 -0.07743997 0.11126365
000350 08 af ed 3d ee 1d bd 3d 7c 97 3e 3e 19 8c 13 bf
       0.1160565 0.09234224 0.18612474 -0.5763565
000360 e4 33 ce 3d b8 b9 60 3e 71 52 23 3e fb 80 a5 be
       0.10068491 0.21945846 0.15949418 -0.32324967
000370 bb c7 d6 be 40 18 c5 be 03 fc c3 be a3 64 d1 be
       -0.41949257 -0.38495064 -0.38278207 -0.40897092
000380 b1 dc ab be ce 0f 2f bf ae c3 4c 3e 38 38 7a bc
       -0.33566812 -0.6838349 0.19996521 -0.015272193
000390 e3 0b 02 be 3c f0 00 3e 91 e2 6f bd a2 2b 3d 3d
       -0.12699847 0.12591642 -0.05856568 0.04618419
0003a0 14 e9 8e 3c d7 78 d9 bd b3 32 a4 be 2f 5d 81 3b
       0.017445125 -0.106187515 -0.3206993 0.003947876
0003b0 4a d8 e6 be a9 22 41 be ae 1b 96 be 88 fe 1b bf
       -0.4508689 -0.18860878 -0.29317993 -0.6093526
0003c0 62 54 b5 be 41 a3 a1 be ab dd e1 be 99 0d ab 3e
       -0.3541594 -0.31569865 -0.44114432 0.33408812
0003d0 6d c1 88 be 83 a3 2b be 3a 71 1c 3c 2c 1f be bb
       -0.26710072 -0.16761594 0.00954848 -0.005802056
0003e0 4f 4d cf 3e cd b9 6c 3e b7 ca 3e bf 9b 8f c2 3e
       0.4048867 0.23117752 -0.7452807 0.38000187
0003f0 ca 75 2b 3d 67 1c b8 be 7c b3 74 3d d8 a2 3d bf
       0.04186038 -0.3595917 0.059741482 -0.74076605

layers.0.bias f4 [128]
000000 2c a4 f6 3c 5e d5 de bc 18 79 28 3f 33 dc 32 3d
       0.03010758 -0.02720135 0.65809774 0.04366703
000010 ad 6a 1e bc cb 23 1c be b4 ce 34 bf a3 0b 9d bd
       -0.009668988 -0.15248029 -0.70627904 -0.07668235
000020 ef 97 a1 be 2f 03 11 be 66 da 12 bf 06 dd b3 be
       -0.3156123 -0.1416137 -0.573645 -0.35129565
000030 e1 de d2 be dc 95 bf be 0a 7d e4 3e a1 5d 96 be
       -0.41185668 -0.3741902 0.44626647 -0.29368308
000040 c6 99 1b bf c8 ed 8b be 43 23 d8 3e b8 12 14 bf
       -0.60781515 -0.2732985 0.42214403 -0.5784106
000050 2d a4 17 bc b7 6c b9 3e 06 35 08 bf 7f 27 c9 3d
       -0.009255451 0.36215755 -0.5320591 0.098219864
000060 2b 35 17 bf 0f bb 91 be d1 c7 ad 3e f5 f6 a9 be
       -0.590655 -0.28463027 0.3394151 -0.33196226
000070 fa ce 15 bf e8 82 91 be 55 8f f3 be 2a 6a 2f be
       -0.58518946 -0.28420186 -0.4757029 -0.17130342
000080 e2 6e d4 be d5 43 87 3e d2 b6 81 3e 31 ca fe bd
       -0.41490847 0.2641894 0.25334793 -0.12440909
000090 0e a5 c5 3e 84 ca 09 be e5 a4 9c be 69 d1 50 bf
       0.3860249 -0.1345616 -0.30594555 -0.81569535
0000a0 77 19 b9 be 26 18 0f 3b 92 61 dd be 77 76 f3 be
       -0.3615224 0.0021834462 -0.43238503 -0.4755132
0000b0 3b 11 eb be bd 4d 70 be 06 8c 86 3e 3a c4 42 bb
       -0.45911583 -0.23467155 0.26278704 -0.002971901
0000c0 5d 2a 9d 3d 30 4c ab bd 72 bb f3 be 7e 5d 22 3f
       0.07674096 -0.08364141 -0.47603947 0.6342391
0000d0 0e bf cf be 91 4c 9e be 29 6b c1 bd 64 4b 5d be
       -0.4057545 -0.3091779 -0.09444267 -0.2161079
0000e0 85 60 a0 be 11 9d 89 be 21 56 f5 be f1 81 e3 be
       -0.3132364 -0.26877645 -0.47917274 -0.44435075
0000f0 89 d4 c9 be 9e 95 68 3e 59 d0 21 bf 3b 1c 0d be
       -0.39419964 0.22713324 -0.6320854 -0.137803
000100 63 e4 9d ba 62 c3 56 3e 81 24 8d be e4 b7 ec be
       -0.0012046214 0.2097297 -0.27566913 -0.46234047
000110 26 04 ec be 8b 65 0b be db 15 a1 be a0 8e 0d bf
       -0.46096915 -0.13612954 -0.31461987 -0.55295753
000120 93 6e 71 be f4 9a c6 be a9 c1 31 3c f1 02 c7 be
       -0.23577337 -0.38790095 0.010849395 -0.38869432
000130 21 2c b1 3e fa ff aa be 37 cb f3 be c4 32 ca be
       0.3460398 -0.3339842 -0.47615978 -0.39491856
000140 87 eb db be d6 80 10 be 5f db 8e bc 00 d7 9f be
       -0.4295313 -0.14111647 -0.017438589 -0.3121872
000150 62 48 d7 be bd 26 71 be fc e8 52 3e fb 53 ec be
       -0.4204741 -0.23549934 0.20596689 -0.46157822
000160 25 65 cd 3c af 7c 01 be 6f c7 be be 6d e1 16 be
       0.025072644 -0.1264522 -0.3726153 -0.1473443
000170 bd 54 7d be bc a2 c9 be 40 03 60 be 72 f6 a0 be
       -0.24739356 -0.3938197 -0.2187624 -0.31438023
000180 89 b3 a8 3e 2f d6 14 bf 13 46 fe 3e 91 42 19 3e
       0.32949474 -0.5813932 0.49662837 0.149668
000190 35 87 d1 3e d1 61 2f be 33 15 e0 be 5e 98 bd be
       0.40923467 -0.17127158 -0.43766174 -0.3703031
0001a0 89 ed 0c be 65 51 a4 3c 29 17 3e be 9c 47 98 3e
       -0.13762487 0.020058343 -0.18563522 0.29742134
0001b0 19 8d 84 be 3c 35 89 bd 77 d4 3b bd 2c 56 0c 3e
       -0.258889 -0.06699607 -0.04585692 0.13704747
0001c0 26 dd 3c bf d0 39 a5 3e 8c 73 2b be ed 93 01 3f
       -0.73774946 0.3227067 -0.16743296 0.5061634
0001d0 19 32 03 bf 36 e5 91 be 55 8c f8 be a9 17 67 bd
       -0.5124832 -0.28495187 -0.48544565 -0.05641905
0001e0 de 03 71 be f8 01 fc be 32 17 ca be 94 56 a2 be
       -0.23536631 -0.49220252 -0.39470822 -0.3170668
0001f0 1b fc c2 be 37 e3 f1 be a6 b9 95 3e a9 15 df be
       -0.38082966 -0.47243664 0.292432 -0.43571213

layers.2.weight f4 [128, 128]
000000 05 04 c0 be e5 cf 40 bf 0f f2 69 3e 81 68 49 be
       -0.37503067 -0.7531722 0.22846244 -0.19668771
000010 89 8f fd 3d 04 27 29 be 27 d7 83 be 8c 89 1b bd
       0.12380893 -0.1651879 -0.25750086 -0.03797297
000020 53 ae f9 3d b1 60 93 bd ee cd 8d 3d e1 b9 d4 ba
       0.12191453 -0.07196177 0.069240436 -0.0016229713
000030 a9 b3 1d 3d de 25 52 3d a9 3f 00 be c4 b1 93 be
       0.038501415 0.051305644 -0.12524284 -0.28846562
000040 18 d2 d3 bd 0f b7 c7 bd c6 a6 bc bd 58 28 0f ba
       -0.103428066 -0.097517125 -0.09211497 -0.0005461029
000050 4b 3f d0 3c c9 e1 55 3c f6 d7 91 3e a2 fc 8a be
       0.025420805 0.01305432 0.28485078 -0.2714587
000060 b7 f6 4e 3d a1 7e 05 bf 7f e8 82 be f7 27 a0 bb
       0.050528254 -0.52146345 -0.25568005 -0.0048875767
000070 37 dd 37 3d 81 14 c7 3d 9c f3 e4 3d 26 0b 64 be
       0.0448887 0.09720708 0.11179277 -0.22269878
000080 36 bd a0 bc 94 2d e4 bd f6 03 7e bf e2 f1 22 bf
       -0.019621473 -0.11141506 -0.99224794 -0.63650334
000090 49 d1 29 3d b8 d1 c2 3e 86 e8 d3 3e bf df 73 be
       0.041459356 0.38050628 0.4138834 -0.23815821
0000a0 a9 bd 30 3d e6 81 a8 be eb 77 0f be 21 88 8b 3d
       0.043149624 -0.32911605 -0.14010589 0.06813074
0000b0 ed 88 a0 3e b4 4e 86 bd fd 8c 5a bd 13 95 9b 3d
       0.31354466 -0.0655798 -0.053357113 0.07596793
0000c0 5f 00 d6 be ee 40 3e bf 2b 75 01 be 2d 34 75 bd
       -0.41797158 -0.74317825 -0.12642352 -0.05986421
0000d0 d6 e2 ee be a1 ca 34 3e 26 54 fa be d7 b9 ac be
       -0.46657437 0.17655422 -0.48892325 -0.33735535
0000e0 fd 75 c4 bd fa e4 9b bd b9 f7 42 bc 34 36 44 3a
       -0.09592817 -0.07612033 -0.011899882 0.00074848835
0000f0 91 86 b7 bd 8b fe 04 bf 85 92 02 bf 1d 57 ba be
       -0.089612134 -0.519509 -0.5100482 -0.36394587
000100 05 12 3c 3d 44 2b e2 bd de 63 11 bf 01 d7 ab 3b
       0.045915622 -0.110434085 -0.5679301 0.0052441363
000110 f5 2b c1 be 5e 83 d3 be 11 1b 97 bf 86 1c 0f be
       -0.3772885 -0.41311163 -1.1805135 -0.13975725
000120 d8 8d eb be 3f a5 61 bc 86 cc 80 bf e2 c5 2c be
       -0.46006656 -0.013772308 -1.0062416 -0.16872361
000130 b5 cb de bd f9 0c 70 3e 84 a8 82 3d ba a2 a7 bd
       -0.10878698 0.23442449 0.06379798 -0.081853345
000140 cd ed 86 bf 1a a9 13 bf 13 f4 4e 3e 93 6e 7f 3d
       -1.0541321 -0.57679904 0.20210294 0.06236131
000150 65 42 9e be 5b 2f 5e bd 89 eb 61 bf 36 7e 3e be
       -0.3091003 -0.05424438 -0.88250023 -0.18602833
000160 fd 4e e6 bd 72 e9 b2 be 95 63 ed bd e4 36 f4 be
       -0.112455346 -0.3494373 -0.115912594 -0.47698128
000170 7d 63 7b 3d 4e 28 d7 be 86 02 51 3d cd 63 a2 3e
       0.061374176 -0.42022938 0.051027797 0.31716767
000180 da 4c 35 bf 4b 29 c3 be f7 86 74 3e 3c d6 c6 3d
       -0.7082039 -0.38117442 0.2387961 0.09708831
000190 83 62 ec bd d1 6c 8e bf 6b 35 95 3d a6 d3 9b be
       -0.11542227 -1.1126958 0.07285579 -0.30434912
0001a0 b8 ad 86 3d 6b f6 de be 71 0a 0e bf 79 f2 70 be
       0.06576103 -0.43547377 -0.5548468 -0.23529996
0001b0 91 db 18 bf 38 45 01 be a2 45 c3 be 06 ca 58 3d
       -0.5971003 -0.12624061 -0.38139063 0.05292704
0001c0 4d ee 67 be e2 6f 8b be e4 e8 95 bd 10 99 7d bd
       -0.22649498 -0.27233797 -0.07319811 -0.06191355
0001d0 f5 76 06 be 05 1e 67 be e0 3a c2 bc 34 5c 0a be
       -0.13131316 -0.22570045 -0.023709714 -0.13511735
0001e0 94 93 0d be d7 0f aa 3e 70 e3 9b 3d 98 a5 e4 be
       -0.13825828 0.3321521 0.0761174 -0.44657588
0001f0 52 b5 eb 3d e5 9c 1e bf a5 07 87 be f4 75 e9 3e
       0.115091935 -0.6195815 -0.2637302 0.45597804
000200 5e b0 d5 3e 9f d2 ec bd 46 8a 84 bb 4e 31 c6 be
       0.4173612 -0.1156361 -0.004044804 -0.38709491
000210 e5 b8 0b bf 24 54 d1 bc f8 3b be bd 44 52 39 3e
       -0.54579 -0.025552817 -0.09288782 0.18097788
000220 54 e7 a8 3d 58 55 bb bd 40 5d 0d bf e1 e9 84 bc
       0.08247247 -0.091471374 -0.55220413 -0.016224803
000230 eb d1 67 3d f2 dc a6 be 1e 3a 19 be 64 30 f0 bd
       0.056596678 -0.32590443 -0.14963576 -0.1172798
000240 10 64 0e 3d 0e 56 02 be f1 4d b2 be a9 f9 10 3f
       0.034763396 -0.1272814 -0.3482509 0.5663095
000250 15 d1 ac bf 45 e2 d5 3d 98 23 ad be d6 1f 90 bd
       -1.3501307 0.10443548 -0.33816218 -0.07037322
000260 d3 d5 33 3e 42 39 43 3d 71 58 98 3e 1f e0 17 3e
       0.17562036 0.047662027 0.29754975 0.14831589
000270 ec 67 a3 3e 05 35 96 3d e8 ac 4d bf bb 11 37 bd
       0.31915224 0.073343314 -0.8034196 -0.044694643
000280 bf 62 af 3e 07 c4 6d bf e9 6a 7c 3d 58 31 1a 3e
       0.34255025 -0.9287724 0.061625395 0.15057886
000290 dd cf c0 be be 4b f4 bd 71 83 cf be 40 0e 71 3e
       -0.37658587 -0.11928509 -0.4052997 0.23540592
0002a0 7b dd 49 be 4e 9d 15 3d da c9 00 be b4 1a d3 3c
       -0.19713394 0.03652697 -0.12577 0.025769569
0002b0 d4 70 a6 3e bc 39 a2 3c e5 03 9a be b0 7b 4e be
       0.32507956 0.01980292 -0.30081096 -0.2016437
0002c0 9f ad e2 3e 0c 91 69 3e 70 a3 3c be f4 63 02 3e
       0.44273087 0.22809237 -0.18421721 0.12733442
0002d0 26 82 52 3c fe fd 07 bf d8 66 df 3e 15 34 30 3f
       0.012848413 -0.53121936 0.4363315 0.6882947
0002e0 ad 11 ae 3e 11 1b ab be e3 69 21 bd 06 4d 83 3e
       0.3399786 -0.33419088 -0.039407622 0.25644702
0002f0 99 9c 23 3e 51 1a bb be 19 85 07 3e 59 36 d1 bd
       0.15977706 -0.36543515 0.13234366 -0.10215444
000300 27 bd bf be b8 2c 8c be 13 aa 54 be a0 ae 83 bd
       -0.37449 -0.27377868 -0.20768003 -0.064297915
000310 e8 75 c4 3e 75 cb 39 3f 2e a9 7e bf 67 db 5d bf
       0.38371205 0.72576076 -0.994769 -0.86662906
000320 b3 75 fc 3e c4 47 52 bf ad cc 32 3f 99 89 b9 3e
       0.49308547 -0.82140756 0.6984356 0.3623779
000330 f2 20 36 bd 7b da 93 3c f3 55 11 3d 4d 0a 38 be
       -0.044465013 0.018048516 0.03548236 -0.1797268
000340 ba a7 6f bf 4c 42 29 bf 3e ad 43 3e 7d 45 88 be
       -0.93615305 -0.66116786 0.19109055 -0.26615515
000350 80 ab 05 be a6 9c be bd 77 33 d1 3d f9 ca 38 3f
       -0.13053703 -0.09307222 0.10214894 0.7218471
000360 23 5a ec 3d 6e ae 70 be 4a b5 1f 3d 0f b0 17 3f
       0.1154063 -0.2350404 0.03899125 0.5925302
000370 8d 60 9b bd c6 a5 e5 3e 92 c7 90 3c 52 62 bb bf
       -0.07586775 0.44853038 0.017673288 -1.463938
000380 28 67 45 be 34 4a 35 3d 36 ef 91 3e 76 fd c2 be
       -0.19277632 0.04426022 0.28502816 -0.38084
000390 03 ca f4 3d 2b 2a 9d 3e 4f 8d 5e be 8a 4b 80 bf
       0.11952593 0.30696234 -0.21733592 -1.0023053
0003a0 3a f1 1e 3e 0d 63 26 be 6f 18 36 3e 71 dc 32 3d
       0.15521708 -0.16248722 0.17782758 0.04366726
0003b0 a3 4a 01 3e 1f c3 d0 bd a7 3f 27 3e ac 7c 85 3e
       0.12626128 -0.101934664 0.16332875 0.2607168
0003c0 66 d7 31 be 0b 1a de bd a0 28 31 be ea 06 93 3d
       -0.17367324 -0.10844811 -0.17300653 0.07179053
0003d0 69 99 8b bd 71 70 64 3e 1c 82 d0 3e dd d0 23 3e
       -0.0681637 0.22308518 0.40724266 0.15997644
0003e0 08 43 0c 3d 7e f3 f1 be 2c b2 0a be 70 6e bd 3d
       0.034243613 -0.47256082 -0.1354453 0.0924958
0003f0 41 2e 11 be e0 e7 92 3e 81 a7 b3 be 56 5f 16 3f
       -0.141778 0.28692532 -0.35088733 0.5873922

layers.2.bias f4 [128]
000000 fc 7e 7c be 21 12 43 3e 45 bb f9 bd 4c fb 60 3e
       -0.24657816 0.19049884 -0.12193922 0.21970862
000010 72 e3 f1 bd 78 51 b8 bb 8a e7 9d be a9 cf 0b bd
       -0.1181096 -0.005624946 -0.30840713 -0.034133587
000020 f0 be 91 be 2c f3 88 be 79 89 e0 bd fe e7 96 be
       -0.28465986 -0.26748025 -0.10963721 -0.2947387
000030 3f 23 02 be ea 0b d2 bd 22 1e f1 bc 53 bb 60 be
       -0.12708758 -0.10256179 -0.029433314 -0.21946459
000040 35 25 0c be 6e ec 28 3d a7 09 f0 bd b0 2f 83 be
       -0.13686068 0.041241102 -0.11720591 -0.2562232
000050 93 2f 2a be ec 7f 8d 3e c4 c4 66 be 1f ef 09 3c
       -0.1661971 0.2763666 -0.22535998 0.008418827
000060 1d 4d a4 be 7a 3e 08 3d 90 1c 26 be cb 95 7d be
       -0.32090083 0.033262707 -0.16221833 -0.24764173
000070 ba 0d f2 bd 0e 49 d6 bd 40 03 3e 3e 33 26 05 3b
       -0.118190244 -0.10463153 0.18555927 0.0020316958
000080 ed fd 3f bd 5c a7 80 3d fc fc ac bd da aa 84 be
       -0.046873022 0.06281921 -0.084466904 -0.259116
000090 3a 12 26 be 8b 8d 4f be ef c6 c8 bd 64 c4 1b be
       -0.1621789 -0.20268838 -0.098035686 -0.15211636
0000a0 69 95 13 be c2 6f 3f be ce e4 35 be 43 66 cc bd
       -0.14412464 -0.18694976 -0.17763063 -0.099804424
0000b0 fa 87 1d be 79 e8 c7 3e 38 61 84 be f7 3d 4f be
       -0.15383902 0.3904455 -0.25855422 -0.20238481
0000c0 5b 86 d3 3c 37 d3 59 3e 12 87 91 be 3d 2e 8a be
       0.025820902 0.21271978 -0.28423363 -0.26988402
0000d0 10 40 10 3e 98 5d 12 bd 8c 52 41 3d 75 f7 7e be
       0.14086938 -0.03573379 0.047197863 -0.24899085
0000e0 aa 7d 69 bd ed 4c 4b 3d c4 14 0a be c9 1b 2f bd
       -0.05700461 0.04963391 -0.13484484 -0.042751107
0000f0 85 b7 5b be 65 ca 85 be b0 18 3b be 58 ce eb bd
       -0.21456726 -0.26130977 -0.18271136 -0.11513966
000100 01 54 78 3e 4b a4 db bd 77 ba a5 bd ad 91 a4 bd
       0.24250795 -0.10724696 -0.08092206 -0.08035598
000110 26 e9 d6 b9 93 5d a5 bd b4 22 1f 3e d9 ce 5d 3e
       -0.0004099097 -0.080744885 0.15540582 0.21660937
000120 7d cb 9c bd 65 e2 13 be 7d cb 15 3d 84 56 f5 bc
       -0.07656 -0.14441831 0.036571015 -0.02994848
000130 9e 2b df bc 60 1e 91 be e6 7a 57 bd d6 d6 d4 be
       -0.027242478 -0.28343487 -0.05260744 -0.41570157
000140 3e d6 80 bd e8 19 16 be 0a 96 0b be 62 87 a0 3d
       -0.062908635 -0.1465832 -0.13631454 0.07838322
000150 75 6c 5a 3d b8 6d 02 be ac db 9d bc 2a 30 d7 bd
       0.05332609 -0.12737167 -0.019269787 -0.105072334
000160 32 08 56 bd b9 84 04 be 7d 37 93 be b0 eb 72 be
       -0.05225391 -0.12941255 -0.28753272 -0.2372272
000170 85 f9 ba 3c e5 1f c9 bd 4d cf 5a be f9 f6 23 bd
       0.022824058 -0.098205365 -0.21368141 -0.040030453
000180 f3 b8 29 be 40 b9 c1 bd ba 23 e8 bd 77 db 93 be
       -0.16574459 -0.09459162 -0.11334939 -0.28878376
000190 37 19 3e be dc 86 93 bd 12 29 41 bd cd f4 4e 3e
       -0.18564306 -0.07203457 -0.04715831 0.20210572
0001a0 10 a6 52 be 2b 93 8e bd 6f 52 2c be ed ed ca 3d
       -0.2057116 -0.06961664 -0.16828321 0.09908662
0001b0 ca 89 2f be 3b 42 f9 bc 10 39 82 be c5 b1 13 be
       -0.17142406 -0.030427089 -0.2543416 -0.14423282
0001c0 34 d0 5d 3b 64 07 11 be 43 88 3d be d8 70 b5 3d
       0.0033846023 -0.14162976 -0.18509011 0.08859414
0001d0 52 7c 37 be 8d 39 49 be 27 c0 16 3d 4a 80 37 be
       -0.17918518 -0.1965086 0.036804345 -0.17920032
0001e0 92 3a 9f bd f4 36 54 bc c0 f1 17 3d 62 cc 8f 3d
       -0.07774843 -0.012952555 0.037095785 0.07021405
0001f0 e9 0a 41 3e c3 0f 95 be 1c 9e a5 3c c8 94 8c bd
       0.18851818 -0.29113588 0.020216994 -0.06864315

layers.4.weight f4 [9, 128]
000000 b7 66 a7 bd 05 81 79 bd 9b 51 c2 3e 16 55 05 bf
       -0.08173888 -0.06091406 0.37952885 -0.52082956
000010 47 fa 02 3e ce 34 dd be bc 6a d4 3c d4 c3 bc 3d
       0.12790786 -0.4320435 0.025929801 0.09217039
000020 f2 49 15 3d f2 ed db bb bc 18 b8 bd b3 fc d0 bb
       0.036447473 -0.006711715 -0.08989093 -0.0063777803
000030 1e b5 a7 bd a0 b0 ff 3d 35 b5 08 3e 45 da e7 3e
       -0.08188842 0.124848604 0.13350375 0.45283714
000040 83 bd 53 3e 78 83 91 3e 4b ff c0 3e 60 b8 5f 3e
       0.20677762 0.28420615 0.37694773 0.21847677
000050 aa 63 1a be 5c 62 80 3e 3c e9 bb 3d b3 6a ce bd
       -0.15077081 0.25075042 0.09175345 -0.10078945
000060 7c 12 81 be d2 9d 3d bd da f7 fb 3c fd c1 e9 3d
       -0.25209415 -0.046293087 0.030757833 0.114139535
000070 3c 0a 90 3d dc 83 e8 bd e9 90 19 3e 6c 1d d1 3d
       0.07033202 -0.11353275 0.14996685 0.1021069
000080 41 0e 57 3e 2c 9b c9 be 16 0d ff be 53 d3 21 bd
       0.21001531 -0.393762 -0.4981467 -0.039508175
000090 a3 21 45 bd 42 3b 42 bd 4c 45 dc be 31 ba 9f be
       -0.04812778 -0.047419794 -0.4302162 -0.3119674
0000a0 33 66 4d bf ab 63 18 3d af c8 d4 bd 84 65 18 be
       -0.8023407 0.037204426 -0.1038984 -0.14882475
0000b0 c5 4f b9 3e a0 28 09 3f 24 d8 78 3e 23 3d f6 3c
       0.36193672 0.53577614 0.24301201 0.03005845
0000c0 22 fd 9e 3e e9 73 93 be 93 6d 27 bf e6 03 17 3e
       0.310525 -0.2879937 -0.6540157 0.14747581
0000d0 d6 09 d8 be 8c 3c a4 3d fc fc ae 3c 68 7d a5 be
       -0.42195004 0.08019361 0.021360867 -0.3232224
0000e0 96 3c 4b 3d b1 39 93 bd dc 40 6f bd 5b b2 09 3d
       0.049618326 -0.07188738 -0.058411464 0.03361736
0000f0 62 30 f7 bd 6d 62 19 bf a6 df 87 bd e8 4e b6 bd
       -0.12069775 -0.5991581 -0.066344544 -0.08901769
000100 10 b6 8b 3e 81 d7 3b bb 35 f6 6a bd 8d 65 01 3e
       0.2728734 -0.0028662386 -0.057363708 0.12636395
000110 50 3e a4 3e 0e a2 3d 3e d2 08 06 3f 2c d4 a6 be
       0.3207879 0.1851885 0.5235721 -0.3258375
000120 fb b3 b3 3c 0e e9 b2 3e a4 49 f7 3c 8e 97 b1 3e
       0.021936407 0.34943432 0.030186482 0.3468594
000130 71 4b 8c bf 5a 06 19 3f 8c 45 8b be 71 08 6e 3c
       -1.0960523 0.59775317 -0.27201498 0.01452838
000140 a3 36 ce bf d1 b2 65 3e 81 48 00 3f ca 27 3c 3e
       -1.6110424 0.22431494 0.5011063 0.18374553
000150 67 db 7d 3d 24 f7 61 bc d5 83 d7 3e ba b9 92 3e
       0.061976817 -0.013791833 0.42092767 0.28657323
000160 39 ab 67 3e 01 3b 8c 3e c8 ea 5d 3e 8c e2 67 3e
       0.2262391 0.27388766 0.21671593 0.22645015
000170 9b f6 a5 be e1 43 7c 3e cb 8e 83 be 9d 7f 71 3c
       -0.32414708 0.24635269 -0.2569488 0.014739898
000180 28 b6 63 be fc c3 3a 3e 30 eb 0a be 4d 3e 0b be
       -0.22237456 0.18238825 -0.1356628 -0.13597985
000190 38 ea cc bc 7b ae 6a be f4 17 13 bd 30 d5 1a 3f
       -0.025014028 -0.22918122 -0.035911515 0.6048155
0001a0 4c ce 11 3f e3 3c 32 bc 6b 1a 04 bd 22 9d 3f 3e
       0.5695541 -0.010878774 -0.032251757 0.18712285
0001b0 0b e4 17 3f ad ca bb 3d b9 77 dc be a0 f3 27 3d
       0.5933234 0.09169517 -0.4306009 0.041003823
0001c0 6e aa 9d be 18 95 a1 3d cb f1 e3 3e f4 79 85 3e
       -0.3079409 0.078897655 0.4452041 0.26069605
0001d0 a3 9b 19 bf 7d 2a db 3d b4 4d d0 3d 37 e8 26 bf
       -0.6000311 0.10701463 0.10171071 -0.6519808
0001e0 03 47 00 bd f4 d7 68 3e ba 5c ed be 81 65 b3 bc
       -0.031317722 0.2273863 -0.46359807 -0.021898987
0001f0 52 73 a9 3e c1 8e ef 3e 2c ca 1b 3d dd 5e 3e 3d
       0.33095795 0.467886 0.038034603 0.046477187
000200 f9 6e db be fe 0a 28 3d 98 75 b7 be 33 6a 9c be
       -0.42858103 0.041026108 -0.35831904 -0.30549774
000210 ff ab 91 bd 0b 76 da 3c 86 5c 7c 3e e7 57 50 3e
       -0.07112884 0.026667615 0.2464467 0.20346032
000220 9a 29 ad 3e a6 3b 1c 3e e5 73 82 3d e0 ca d6 3d
       0.33820802 0.15257129 0.063697614 0.10487914
000230 b2 05 23 3e c9 e8 54 bd bd 0e 95 be 8a 5d c3 be
       0.15920141 -0.051979814 -0.29112807 -0.38157302
000240 02 f9 c8 3d 0f 87 c2 bc f0 20 a0 3e 30 2f dd 3b
       0.098131195 -0.023746042 0.3127513 0.00675001
000250 66 cd b4 3d 04 88 fe 3d 84 f7 50 3e de 1e 53 3e
       0.08828239 0.12428287 0.2040692 0.20617244
000260 9e f3 05 3f 84 93 cf bd 41 0d 08 3e 67 cf b5 3d
       0.52324855 -0.10135558 0.13286306 0.088774495
000270 e1 90 e4 bd 26 cf e5 bd e1 40 f1 3e e5 5f 6d 3e
       -0.11160446 -0.11221151 0.4711981 0.23181112
000280 b1 4e db 3e 38 38 a6 bd 4e b6 06 3f 98 9d 7e be
       0.42833474 -0.081161916 0.52621925 -0.24864805
000290 ae d7 1a bd bc e2 9f 3c 08 14 b6 bc 5f b9 51 bd
       -0.037803344 0.019517295 -0.022226349 -0.051202174
0002a0 ec e4 ca 3e 10 58 7b bd ce 31 33 bd f5 a3 e0 bd
       0.3962778 -0.06136328 -0.04374867 -0.10968772
0002b0 3a c8 ac 3d 20 dd 00 3f 50 25 86 3e 67 9a 8f be
       0.08436628 0.5033741 0.26200342 -0.28047487
0002c0 14 17 84 be e1 9f 3e 3e d1 76 f3 3e a5 f4 c0 be
       -0.25798857 0.18615676 0.47551587 -0.3768665
0002d0 53 78 0b 3f c1 e1 f7 3e 92 63 b0 3b b3 ef a6 3d
       0.54480475 0.48414424 0.0053829635 0.08151188
0002e0 54 86 5a be cf 5c 7f bc 92 9d ba bd 01 20 a8 bf
       -0.21340305 -0.015586092 -0.091120854 -1.3134767
0002f0 da 97 34 3e 35 b1 40 be 68 43 3d 3d f5 23 d2 3d
       0.17636052 -0.18817599 0.04620686 0.102607645
000300 35 12 9b bd 79 4a 16 be 73 4b 23 bd b5 ac 36 3e
       -0.07571832 -0.14676847 -0.039866876 0.1783932
000310 42 16 8e be 80 af a4 be e3 de bc 3e 7e ab b9 be
       -0.27751356 -0.32165146 0.368888 -0.3626365
000320 71 0d b2 3d cd 99 a3 bd 3b df 32 3e a6 b1 4c 3d
       0.0869397 -0.079883195 0.17467968 0.049974106
000330 40 7a 35 3e aa fc 50 3f 4e 96 0a 3e 6d 2f 92 bf
       0.17722416 0.81635535 0.13533899 -1.1420723
000340 33 e0 cd 3e 6c 8e df 3d 03 42 9a 3e 5a 8a dd 3d
       0.40210113 0.10915837 0.30128488 0.10817404
000350 08 ce 1d 3c 83 f2 0e 3c d4 63 da 3e 47 d9 98 be
       0.009631641 0.0087248115 0.42654288 -0.2985327
000360 7a 45 da bd 07 22 43 be ba 75 05 bf e4 7d c8 3e
       -0.10657783 -0.19055949 -0.5213276 0.39158547
000370 a9 32 28 be 0d 18 a6 3e f4 4c 9a 3d 3c 25 29 b9
       -0.16425575 0.32440224 0.07534209 -0.00016130967
000380 42 6d 90 3e bf 80 cb 3e af 06 90 bd 0c f0 bf be
       0.28208357 0.39746663 -0.07032525 -0.3748783
000390 ad cd 13 3d 24 2d b2 bd ba 88 2b bd b0 a7 c9 be
       0.03608482 -0.08700016 -0.04187844 -0.39385748
0003a0 c4 a2 21 3f 39 b8 7c bd 1a 04 de 3d c4 aa 04 bf
       0.63138986 -0.061699126 0.10840626 -0.5182307
0003b0 d6 23 8c 3e 40 32 76 be b2 74 a6 3c c6 9d 7d 3d
       0.2737109 -0.24042606 0.020319317 0.061918043
0003c0 8d 82 8c bd 4e c2 4c 3d 3d 0b b3 3c f3 0c a3 3e
       -0.06860838 0.04998999 0.021855945 0.31845817
0003d0 a5 c3 25 be f3 3f 36 3e 7a ca da bc 36 74 69 3e
       -0.16187914 0.17797832 -0.026707876 0.22798237
0003e0 89 19 b6 3d b4 85 d0 3e 89 6f 2a 3e 77 2a 77 3d
       0.08891589 0.40727007 0.1664411 0.060343232
0003f0 44 26 70 3d eb 87 50 3f af b2 d1 3d 5b 8f 82 be
       0.058630243 0.81457394 0.10239159 -0.25499997

layers.4.bias f4 [9]
000000 5b ee 28 3e 5f cd 22 3d ea 3e 0c 3e aa e4 51 bd
       0.16497175 0.03974664 0.13695875 -0.05124346
000010 2c d0 42 3d e1 af 5b 3d 00 1b a8 bc 9f ad 1e 3e
       0.04756181 0.053634528 -0.020520687 0.15495919
000020 42 ef c4 3c
       0.024039868
