UR5/tictactoe_dqn.pth (torch, 78532 bytes, 6 tensors)

layers.0.weight f4 [128, 9]
0	0x3ec2e70d	0.38066903
1	0x3a17a2f8	0.0005784477
2	0x3e45c269	0.19312443
3	0x3ea3bc1d	0.31979457
4	0x3e66dcb2	0.22545126
5	0x3def7560	0.116923094
6	0xbe9c7950	-0.30561304
7	0x3e8c23cb	0.27371058
8	0x3e7bb013	0.24578886
9	0x3e36d823	0.17855887
10	0x3e7bd313	0.24592237
11	0xbee1c83b	-0.44098076
12	0xbea91435	-0.3302323
13	0x3ea0848e	0.3135113
14	0x3e9b4eec	0.3033365
15	0x3e8079c9	0.25092915
16	0x3e76ccdc	0.24101585
17	0x3da5813b	0.080812894
18	0xbea42dc2	-0.3206616
19	0x3e88768d	0.26652947
20	0xbeca5012	-0.39514214
21	0xbe9afcb3	-0.3027092
22	0xbe6641ae	-0.22485992
23	0xbe862121	-0.2619715
24	0xbe6a230c	-0.22864932
25	0xbe83a4b0	-0.25711584
26	0xbed33b30	-0.41256094
27	0xbf049cf2	-0.5180198
28	0xbc653400	-0.013989449
29	0xbda63e0b	-0.081173025
30	0xbcf89131	-0.03034267
31	0x3df2376c	0.11826977
32	0x3cb77c8e	0.02239826
33	0x3ebb7944	0.36615956
34	0xbe69db38	-0.22837532
35	0x3c8cc1f0	0.01718232
36	0x3e1e867b	0.15480988
37	0x3e3c0d65	0.18364485
38	0xbefcc71e	-0.49370664
39	0x3e2426d2	0.16030434
40	0x3e9f6cba	0.3113764
41	0xbd59a7a9	-0.05313841
42	0x3ec80834	0.39068758
43	0x3e64daef	0.22349142
44	0x3e1e7f9d	0.15478368
45	0xbd4f509b	-0.05061398
46	0x3edc1b17	0.42989418
47	0x3e19b47c	0.15010256
48	0xbdf496f3	-0.11942854
49	0x3db946e7	0.09046727
50	0x3e14412b	0.14477985
51	0xbe927e6c	-0.28612077
52	0x3eb6f0d5	0.35730615
53	0xbe9467cd	-0.28985444
54	0x3e4d08ce	0.2002289
55	0xbd986acd	-0.07442246
56	0xbcebedf8	-0.028799996
57	0xbf2b2814	-0.6685803
58	0xbd52103d	-0.051285017
59	0x3c9f4ac9	0.01944484
60	0xbeaf8750	-0.34282923
61	0x3dd8a64a	0.10578592
62	0x3c87c07c	0.016571276
63	0xbe99d318	-0.30043864
64	0xbe8874b6	-0.26651543
65	0xbe805203	-0.2506257
66	0x3ebc6689	0.36796978
67	0x3e9f636d	0.31130543
68	0x3d4eb2c2	0.050463445
69	0xbe0e4eaa	-0.13897195
70	0x3ea04c0b	0.31308016
71	0x3d481f40	0.048857927
72	0xbe552a94	-0.20817024
73	0xbedc86f0	-0.430717
74	0xbe66645f	-0.22499226
75	0x3d1959b3	0.03743906
76	0x3ec9b349	0.39394596
77	0xbe8d85fe	-0.2764129
78	0x3e0a5519	0.13509025
79	0xbe6d345b	-0.23164503
80	0x3b228a5a	0.0024801702
81	0x3e170ba5	0.14750536
82	0x3d85f411	0.065406926
83	0x3ea4295e	0.3206281
84	0xbe8525c3	-0.26005372
85	0xbeb9b4ba	-0.36270696
86	0xbdeb6aae	-0.11494957
87	0x3e8672b5	0.2625939
88	0xbd68acf0	-0.05680555
89	0xbd622e11	-0.055219714
90	0xbe836905	-0.2566606
91	0x3e703724	0.23458534
92	0x3e332817	0.17495762
93	0x3d040a45	0.032236356
94	0xbeeb755e	-0.45987982
95	0xbe48ce3a	-0.19609919
96	0x3dd7822f	0.105228774
97	0x3e6b7b97	0.22996365
98	0x3d38d365	0.045123477
99	0xbc82249c	-0.015886597
100	0xbe9af3f8	-0.30264258
101	0x3c2930a3	0.010326537
102	0x3e3b4fd8	0.18292177
103	0xbcbd3ab7	-0.023099286
104	0xbf1f5303	-0.6223604
105	0xbd94527e	-0.07242297
106	0x3d7a8ea2	0.06117118
107	0x3bee594b	0.007273828
108	0xbf32709f	-0.69703096
109	0x3da8f09e	0.08249019
110	0x3e24bf64	0.16088635
111	0x3e917455	0.28409067
112	0x3e359ad3	0.17734842
113	0x3e4bd893	0.19906835
114	0x3e37a30a	0.17933288
115	0x3e1a586b	0.15072791
116	0x3e85a8b7	0.26105282
117	0xbe81f109	-0.25379208
118	0x3e8c5536	0.2740876
119	0xbed4b959	-0.4154766
120	0x3e912457	0.28348038
121	0xbee2331a	-0.44179612
122	0xbd425e40	-0.047453165
123	0x3e3859b6	0.18002972
124	0x3e39441d	0.1809239
125	0x3e196653	0.1498044
126	0x3ecdb593	0.40177593
127	0x3e5f8cf5	0.21831115
128	0xbedb6648	-0.42851472
129	0xbe895058	-0.2681911
130	0x3e315599	0.17317809
131	0xbdb0e9a2	-0.08638312
132	0x3ca7a601	0.020464899
133	0x3cea2207	0.028580679
134	0x3da74841	0.08168078
135	0xbe60975a	-0.21932736
136	0x3e923100	0.2855301
137	0x3e4b8ff4	0.19879133
138	0x3c8c50bd	0.017128343
139	0xbdcf25a3	-0.101146005
140	0x3d33d235	0.04390164
141	0x3e85c7dc	0.26129043
142	0xbdeb8026	-0.11499052
143	0x3edfab5d	0.43685427
144	0xbf2d983f	-0.67810434
145	0x3e17ab1b	0.14811365
146	0x3d8c22f0	0.06842601
147	0x3e246d46	0.1605731
148	0x3dac16bc	0.08402774
149	0xbcf0748d	-0.02935245
150	0x3dbfb176	0.0936002
151	0x3e245fa8	0.16052115
152	0x3db90227	0.09033614
153	0x3e1ad92c	0.15121907
154	0xbe3c55ae	-0.18392059
155	0x3a8178cb	0.0009877918
156	0x3e085dd7	0.13317047
157	0xbf33edb9	-0.7028461
158	0x3dcf724a	0.10129221
159	0x3cc11c56	0.023573082
160	0x3d9c57dd	0.07633946
161	0xbd39bc32	-0.045345493
162	0xbe30966a	-0.17244878
163	0x3e40d396	0.18830714
164	0x3ec5b9ca	0.38618308
165	0x3e7df325	0.24799784
166	0xbd8de3a1	-0.069281824
167	0x3eb8ad2c	0.3606962
168	0x3e940212	0.2890783
169	0x3e6fb97c	0.234106
170	0xbdb4e7a6	-0.08833246
171	0x3e557a2b	0.20847385
172	0x3db91981	0.090380676
173	0xbd5b3355	-0.05351575
174	0xbd88b1c4	-0.06674531
175	0x3e1de48f	0.1541922
176	0xbecc3bed	-0.3988947
177	0x3ed5b91d	0.41742793
178	0xbea24010	-0.316895
179	0xbdc92572	-0.09821595
180	0xbe9428f1	-0.28937486
181	0xbd5fd8cf	-0.054650124
182	0x3e4a04be	0.19728372
183	0x3ed92b22	0.4241572
184	0xbdfc01e1	-0.12305046
185	0xbd1b9039	-0.03797934
186	0x3edce2da	0.43141824
187	0xbe9b89db	-0.30378613
188	0xbe1f6ea3	-0.15569548
189	0x3ef3d339	0.47622088
190	0x3ed47d6d	0.41501942
191	0x3ec0a8ee	0.37628883
192	0x3e9dbc50	0.30807734
193	0x3e9ff460	0.3124113
194	0x3ee804cd	0.45316163
195	0x3e8002d6	0.25002164
196	0x3d8dc1e4	0.06921747
197	0x3ea923b4	0.33035052
198	0x3e813e28	0.25242734
199	0x3e07b4aa	0.13252512
200	0x3ea4135d	0.32046023
201	0xbf09b227	-0.53787464
202	0xbe0662ef	-0.13123678
203	0x3e9013a7	0.28139994
204	0x3e7426db	0.23842947
205	0xbdccac5b	-0.09993812
206	0xbd163490	-0.03667122
207	0xbf0777bd	-0.5291708
208	0xbe1de961	-0.15421058
209	0x3e7769ba	0.24161425
210	0xbe3e1b02	-0.1856499
211	0x3e1df502	0.15425494
212	0x3d04ad72	0.032391973
213	0x3e8f52bf	0.27992818
214	0x3dc24584	0.09485915
215	0xbe076b7d	-0.13224597
216	0x3daa89ab	0.08327039
217	0x3edf0298	0.43556666
218	0xbc014511	-0.007890002
219	0x3e513f4b	0.204343
220	0x3da8c46e	0.08240591
221	0xbedab08c	-0.4271282
222	0x3c659eee	0.014014943
223	0xbde8e48c	-0.11371717
224	0xbe194203	-0.14966588
225	0xbe9322b1	-0.28737405
226	0xbcae0678	-0.021243319
227	0x3cb8ca90	0.022557527
228	0xbdbd7952	-0.09251656
229	0xbe743d24	-0.23851448
230	0x3d80b4d0	0.06284487
231	0x3cca06a0	0.024661362
232	0x3f11c9f6	0.5694879
233	0x3d5f37d9	0.05449662
234	0xbe2eea79	-0.17081632
235	0xbc8e9487	-0.017404808
236	0xbe8eb1a7	-0.27869913
237	0xbe19f748	-0.15035737
238	0xbccbe458	-0.024889156
239	0xbeba2b3f	-0.3636112
240	0xbea6a11c	-0.32544792
241	0x3c677773	0.0141276
242	0xbdd31541	-0.10306788
243	0x3e49eb47	0.19718657
244	0xbe0839f2	-0.13303354
245	0xbdb6c51f	-0.089243166
246	0x3e49b6e7	0.19698678
247	0xbd62ea37	-0.055399146
248	0x3d0ae15f	0.033906337
249	0x3ea0d781	0.31414416
250	0xbf139460	-0.5764828
251	0x3eb1a007	0.34692404
252	0x3e53c075	0.20678885
253	0xbe212c8e	-0.15739653
254	0x3d2b0f23	0.041762482
255	0xbec7042d	-0.38870373

layers.0.bias f4 [128]
0	0x3e792fd3	0.2433465
1	0x39a011a1	0.00030530713
2	0x3e92c76a	0.28667766
3	0xbd83d9a8	-0.06437999
4	0xbc7ef760	-0.0155619085
5	0x3e72293a	0.23648539
6	0xbdf89021	-0.121368654
7	0x3eb4bc5a	0.3529995
8	0xbeb9735e	-0.3622083
9	0x3e69a824	0.22818047
10	0xbba23d60	-0.004951164
11	0x3db48282	0.08813955
12	0xbd83d772	-0.06437577
13	0xbac3a8c8	-0.001492762
14	0x3e918b45	0.28426567
15	0x3e10c6fc	0.14138407
16	0xbe205b76	-0.1565989
17	0x3c206080	0.009788632
18	0x3eb50d31	0.35361627
19	0xbeac0d76	-0.3360402
20	0xbbcd9203	-0.0062735095
21	0x3eca3e0b	0.3950046
22	0xbeccba46	-0.39985865
23	0xbd307043	-0.04307581
24	0x3e609947	0.2193347
25	0x3d3c2db4	0.045942023
26	0x3ecba7c9	0.39776447
27	0xbe153b21	-0.14573337
28	0xbe97c921	-0.29645637
29	0x3e2bf011	0.16790797
30	0xbc38a700	-0.011270285
31	0x3e6bf2c5	0.23041828
32	0xbda1638f	-0.078803174
33	0x3ea4d290	0.32191896
34	0x3e9b9bff	0.30392453
35	0xbe73e903	-0.23819356
36	0xbe20fd74	-0.15721685
37	0xbd8b4d71	-0.0680188
38	0x3c0ae71f	0.008477955
39	0xbe741207	-0.23835002
40	0x3bfa5a01	0.007640124
41	0x3e87ab34	0.26497805
42	0xbba7e305	-0.0051234984
43	0xbe0aa7e8	-0.13540614
44	0x3e73cd72	0.2380884
45	0x3e0cc934	0.13748628
46	0x3e90ac16	0.2825629
47	0x3ea92c85	0.33041778
48	0x3e8c4b0d	0.2740101
49	0xbe28161d	-0.16414686
50	0xbdb025e9	-0.08600981
51	0x3f177150	0.59157276
52	0x3e14281e	0.14468428
53	0xbe26d7e0	-0.16293287
54	0xbe379846	-0.17929181
55	0xbd1a2e29	-0.037641678
56	0xbe16784e	-0.1469433
57	0xbdc353da	-0.09537478
58	0x3c632d12	0.013865726
59	0x3e87660e	0.2644505
60	0x3d59eab2	0.05320234
61	0xbb0705e6	-0.002060288
62	0xbe6da70f	-0.23208259
63	0x3e96030d	0.29299203
64	0x3ebc7599	0.3680847
65	0xbe2c79d1	-0.16843344
66	0xbd8104c4	-0.06299737
67	0xbe12e955	-0.14346822
68	0xbcfb778a	-0.03069665
69	0x3e47c498	0.19508588
70	0x3d55d3c5	0.052203912
71	0x3d89f8d8	0.06736916
72	0x3ddb303d	0.1070256
73	0x3e2dbc89	0.16966452
74	0xbe036cc7	-0.12834464
75	0x3e52a0e4	0.20569187
76	0x3eee07f9	0.46490458
77	0xbdf8e2c6	-0.121526286
78	0xbde99a2d	-0.1140636
79	0x3e19d432	0.15022352
80	0x3db45281	0.08804799
81	0xbe86a047	-0.26294157
82	0xbd349756	-0.044089638
83	0x3c8a1a12	0.016858134
84	0xbe055699	-0.13021316
85	0x3df3e0d8	0.1190812
86	0x3ebb682e	0.3660292
87	0xbe80ff66	-0.25194854
88	0x3d79f54a	0.06102494
89	0xbd0f57aa	-0.034995712
90	0xbd645d9e	-0.055753343
91	0x3d29bc12	0.041439123
92	0x3dc4f815	0.096176304
93	0xbe93a6d9	-0.28838232
94	0xbd7c8c7d	-0.061657418
95	0xbdccc42b	-0.099983536
96	0x3e1a1c03	0.15049748
97	0xbdcefdb7	-0.10106986
98	0x3ed4bb3d	0.415491
99	0x3e6d7847	0.23190413
100	0x3eb21818	0.34784007
101	0x3ea43c60	0.32077312
102	0x3e03ef9f	0.12884377
103	0xbeae9163	-0.34095296
104	0xbd3cc92a	-0.046090282
105	0x3ecddeb6	0.40208977
106	0xbd419e58	-0.04727015
107	0x3eb87cfd	0.36032858
108	0x3cb05cb1	0.021528574
109	0x3e24676b	0.16055076
110	0xbd8697e6	-0.06571941
111	0x3e0cc9c3	0.13748841
112	0xbd4eeff9	-0.050521825
113	0x3ec7c02d	0.39013806
114	0x3eb4781a	0.3524788
115	0x3ec74a77	0.38924
116	0xbc7597bf	-0.014989792
117	0xbdfb0158	-0.12256116
118	0xbcb78e39	-0.022406684
119	0xbe09f1f9	-0.13471211
120	0xbe932ae2	-0.28743654
121	0xbe8ec481	-0.27884296
122	0xbda874f3	-0.08225431
123	0xbd1ec2f3	-0.038760137
124	0x3e7c86b3	0.24660759
125	0xbd5cdbfb	-0.053920727
126	0x3eb98513	0.3623434
127	0xbe7d8991	-0.24759509

layers.2.weight f4 [128, 128]
0	0xbd8ea009	-0.06964118
1	0x3c066712	0.008203285
2	0x3e586879	0.21133603
3	0xbcc5f1ab	-0.024163088
4	0x3d944ef2	0.0724162
5	0x3e421934	0.18954927
6	0xbc4f20c5	-0.01264209
7	0xbd1f2fd2	-0.038863964
8	0x3d1e96ad	0.038717914
9	0x3d8c2ba9	0.06844265
10	0x3e3e59dc	0.18588966
11	0xbe2a6dba	-0.1664342
12	0x3d15f347	0.03660896
13	0x3e0def50	0.13860822
14	0x3c9b55b9	0.018961774
15	0x3d52a482	0.051426418
16	0xba97775c	-0.0011555958
17	0xbe099c5d	-0.13438554
18	0x3d23ef44	0.040023103
19	0x3e3a9d3b	0.18224041
20	0xbdd16534	-0.10224381
21	0x3e485c35	0.19566424
22	0x3cab32db	0.020898273
23	0xbe1f7726	-0.15572795
24	0x3e2b50b2	0.16730002
25	0xbd261b01	-0.040553097
26	0xbd8d254f	-0.06891882
27	0xbab36fae	-0.0013689899
28	0xbe120930	-0.14261317
29	0x3dc2a5eb	0.095043026
30	0xbdd7d77c	-0.10539147
31	0x3d2a3731	0.04155654
32	0xbc938e8d	-0.01801231
33	0xbd4ddeb7	-0.050261226
34	0xbcf5923f	-0.029976962
35	0x3e0452d2	0.12922218
36	0x3bf1b237	0.007375981
37	0x3e45dc47	0.1932231
38	0x3edefab1	0.43550637
39	0xbe1119f3	-0.14170055
40	0x3de9e00a	0.11419685
41	0xbe32d868	-0.17465365
42	0xbbba05e9	-0.005676974
43	0x3ca174c2	0.019708995
44	0x3b3c78e7	0.0028758587
45	0xbe0a4a05	-0.13504799
46	0xbda03a26	-0.07823591
47	0x3d1a4b8f	0.037669715
48	0xbe097295	-0.13422616
49	0x3cc794c2	0.024362925
50	0xbcab8c51	-0.020940932
51	0x3d13bf83	0.03607131
52	0xbe37da38	-0.17954338
53	0x3d4a79cb	0.049432557
54	0x3db97313	0.09055152
55	0x3db9fb9b	0.09081193
56	0x3ddb27c7	0.10700946
57	0xbda0a4ec	-0.07843956
58	0xbd67513a	-0.056473948
59	0x3d5a5bbb	0.053310137
60	0xbe3b8d00	-0.18315506
61	0x3e21b1d1	0.15790488
62	0x3db8f4f2	0.090310946
63	0x3cf9bdd8	0.030486032
64	0xbcae7693	-0.021296775
65	0xbdf61dfe	-0.12017439
66	0x3e1f1ef1	0.15539147
67	0xbd4f1fc1	-0.050567392
68	0x3d7b96e7	0.06142321
69	0xbdb0ed8f	-0.08639061
70	0xbc72d268	-0.014820673
71	0xbc82fb17	-0.01598887
72	0xbc96d96d	-0.018414224
73	0x3e1aa146	0.15100583
74	0xbdaebf84	-0.085326225
75	0x3da7c128	0.081911385
76	0xbd617981	-0.055047516
77	0xbc8d9261	-0.017281713
78	0x3e27eabf	0.16398142
79	0x3d0dda5b	0.034632068
80	0xbe4d36c2	-0.2004042
81	0xbe050216	-0.12989077
82	0x3dbfa852	0.093582764
83	0x3e350ed8	0.17681444
84	0xbe9748bf	-0.29547688
85	0x3d6369b4	0.05552073
86	0xbd059f54	-0.03262265
87	0xbc7ba4d7	-0.015359125
88	0xbe84bb85	-0.25924316
89	0x3dba3614	0.09092346
90	0xbc365f25	-0.011131083
91	0xbdeb6015	-0.114929356
92	0xbd4e86bb	-0.050421458
93	0xbe37a194	-0.17932731
94	0xbe45feef	-0.1933553
95	0xbd1a45d1	-0.03766424
96	0xbdfa12f4	-0.12210646
97	0xbce4eda2	-0.027945343
98	0x3d66b4db	0.05632482
99	0xbd146228	-0.03622642
100	0xbd4db9ca	-0.05022601
101	0xbd5a7b20	-0.053340077
102	0x3c7ca140	0.015419304
103	0xbec882f3	-0.39162406
104	0x3d949374	0.07254687
105	0x3d459711	0.04823977
106	0xbe645229	-0.22296967
107	0xbd0a4248	-0.033754617
108	0xbdc54412	-0.09632124
109	0x3e0d147b	0.13777344
110	0xbddb844b	-0.10718592
111	0x3dced18d	0.100985624
112	0xbcd58563	-0.02606458
113	0xbe473957	-0.19455467
114	0xbdef74d5	-0.11692206
115	0x3d090e92	0.03346116
116	0x3d014fc6	0.03157022
117	0x3c4bc045	0.012435977
118	0xbb45f7f2	-0.0030207601
119	0xbdf36fdf	-0.11886572
120	0xbd88fd57	-0.06688946
121	0x3d9cdf4e	0.076597795
122	0x3d26a423	0.040683877
123	0xbdc09f14	-0.09405342
124	0x3e247936	0.16061863
125	0x3e117573	0.1420496
126	0xbdcf8b03	-0.10133936
127	0x3a103735	0.00055013906
128	0x3e0af12d	0.13568564
129	0xbe03c49a	-0.12867966
130	0x3e5c71b1	0.21527745
131	0xbb523ba4	-0.0032079006
132	0xbe4b883d	-0.1987619
133	0x3d6ef00e	0.058334403
134	0x3e7c340d	0.24629231
135	0x3c9fb834	0.019497015
136	0x3de8dc77	0.11370175
137	0xbd3664da	-0.044529773
138	0xbe03ac95	-0.12858804
139	0xbd3a9522	-0.04555238
140	0xbd1ff7c4	-0.039054647
141	0xbdf5f421	-0.120094545
142	0x3bb9722e	0.005659363
143	0xbe3c14e0	-0.18367338
144	0xbd36f03e	-0.044662707
145	0x3c56fcd4	0.013121802
146	0xbe20305e	-0.1564345
147	0xbe28ab07	-0.16471492
148	0xbe16ec4e	-0.1473858
149	0xbce96549	-0.02849068
150	0xbda13014	-0.07870498
151	0xbd5b889c	-0.053597078
152	0xbcd91374	-0.026498534
153	0x3db853ab	0.090003334
154	0x3e8d37c4	0.27581608
155	0x3d170b35	0.036875922
156	0xbc9cab34	-0.019124605
157	0x3e20ce3c	0.15703672
158	0xbe27727b	-0.16352265
159	0x3b5b275c	0.0033440208
160	0x3cf60938	0.030033693
161	0xbe62d05d	-0.22149797
162	0x3dcf674b	0.101271234
163	0xbd9dbba9	-0.07701809
164	0xbdc56399	-0.09638137
165	0x3da7cd5d	0.08193467
166	0xbca092fe	-0.019601341
167	0x3c8f18c4	0.017467864
168	0x3c392606	0.011300569
169	0xbde1df6c	-0.110289425
170	0xbdd6f9a6	-0.104968354
171	0xbd9f5d59	-0.077814765
172	0x3d52a3e7	0.05142584
173	0xbdae5692	-0.08512606
174	0xbe6c9dc3	-0.23107056
175	0xbe43b20a	-0.19110885
176	0x3e3b2f7e	0.18279836
177	0x3e2d4370	0.16920257
178	0xbe0afbf1	-0.1357267
179	0x3d92aa05	0.07161335
180	0x3cb927b3	0.022601938
181	0xbe02ebb7	-0.1278523
182	0x3d80c786	0.06288056
183	0x3e59716d	0.21234675
184	0xbd16ba34	-0.03679867
185	0x3d68572d	0.056723762
186	0xbe0756c2	-0.13216689
187	0x3da8cb2e	0.082418784
188	0x3d5c0955	0.053719837
189	0xbd0fdf8e	-0.035125308
190	0xbd6350f8	-0.05549714
191	0x3dcc661c	0.09980413
192	0xbd37ddb0	-0.044889152
193	0xbe1445ef	-0.14479803
194	0xbdccab78	-0.099936426
195	0xbdfe4120	-0.12414765
196	0x3d3ddf47	0.046355512
197	0x3e340cba	0.1758298
198	0xbe63a729	-0.22231735
199	0xbe04b745	-0.12960537
200	0x3dbb5491	0.09146989
201	0xbd1b2a8a	-0.037882365
202	0x3dde61e5	0.10858516
203	0x3d382687	0.044958618
204	0x3d0a8145	0.033814687
205	0x3e0cc6d9	0.1374773
206	0xbcccc4b2	-0.024996135
207	0xbdd181cf	-0.10229837
208	0xbe1f487b	-0.15554993
209	0xbd97adc6	-0.074061915
210	0xbd9a5ee9	-0.07537634
211	0xbd3f1f51	-0.046660725
212	0xbde23a06	-0.11046223
213	0xbde62da6	-0.112391755
214	0x3dd1a681	0.10236836
215	0x3dcc0f05	0.09963802
216	0xbc6e558f	-0.014546766
217	0xbdc45a7a	-0.095875695
218	0x3c814d0a	0.015783805
219	0x3d5a355f	0.053273555
220	0xbd24c097	-0.04022273
221	0xbc515848	-0.012777396
222	0x3d5e005e	0.05419957
223	0xbe84f34d	-0.25966874
224	0xbda706ba	-0.0815558
225	0xbdc72600	-0.09724045
226	0x3d527b85	0.05138733
227	0xbe041cc4	-0.12901598
228	0xba8ae98a	-0.0010598165
229	0x3d8a7186	0.06759934
230	0xbd293fe6	-0.041320704
231	0xbdf88b2e	-0.121359214
232	0xbc739a8f	-0.014868393
233	0xbda5b54d	-0.08091221
234	0xbc38adda	-0.011271918
235	0xbdc0ceb4	-0.094144255
236	0x3e0205c7	0.12697516
237	0x3c49f067	0.012325383
238	0x3e235bdd	0.15953012
239	0x3dfc15d2	0.123088494
240	0xbcf2b3fc	-0.029626839
241	0xbbf1655b	-0.007366819
242	0xbdd15962	-0.102221265
243	0x3da95ce3	0.0826967
244	0xbe3f5add	-0.18687005
245	0x3d5cc381	0.053897385
246	0x3d7df9f0	0.062005937
247	0xbd2eb20d	-0.04265027
248	0x3dc37e0a	0.095455244
249	0xbe80f448	-0.25186372
250	0xbdfa8406	-0.12232213
251	0xbd3084fd	-0.043095578
252	0xbd4aac1c	-0.049480543
253	0x3da0f70b	0.0785962
254	0xbe5dd844	-0.2166453
255	0x3dbe0071	0.09277428

layers.2.bias f4 [128]
0	0xbd8ec738	-0.06971592
1	0x3dc53d59	0.09630842
2	0xbcbd3720	-0.023097575
3	0x3e06e0cd	0.13171692
4	0x3d6dac44	0.058025613
5	0x3c31fc81	0.010863424
6	0xbdea78ba	-0.11448808
7	0xbdf5bbad	-0.11998687
8	0xbdc679f6	-0.09691231
9	0xbd97de5b	-0.07415458
10	0xbda91f04	-0.08257869
11	0xbd6f228f	-0.058382567
12	0xbd9a456e	-0.07532774
13	0x3cb53b6d	0.022123063
14	0x3daaa462	0.08332135
15	0xbd62a98b	-0.05533747
16	0x3bbf0d30	0.0058304295
17	0x3d6a677a	0.05722759
18	0xbde9d5d9	-0.11417741
19	0xbdd558e8	-0.10417348
20	0xbdb8fae2	-0.09032227
21	0x3e94dfcf	0.29077002
22	0xbdc4ff8d	-0.09619055
23	0xbc925273	-0.01786158
24	0x3cb8d082	0.022560362
25	0x3db4be2b	0.08825334
26	0xbd0ea681	-0.03482676
27	0xbe0939f0	-0.13401008
28	0xbd4572a1	-0.04820502
29	0xbc8c9e08	-0.017165199
30	0x3de51097	0.11184805
31	0x3cd432cc	0.025903128
32	0xbdab1730	-0.08354032
33	0x3d2114bf	0.039326426
34	0x3d1d84e4	0.038456813
35	0xbca3569d	-0.019938761
36	0xbe025da0	-0.12731028
37	0xbd035d05	-0.032071132
38	0x3cbe24bf	0.023210881
39	0xbd84463f	-0.06458711
40	0x3cdd5a42	0.027020577
41	0xbd8eecb2	-0.0697874
42	0xbdaff47b	-0.08591553
43	0x3bec0016	0.0072021587
44	0xbcbff815	-0.023433724
45	0x3e63c7eb	0.22244231
46	0xbe0227a1	-0.1271043
47	0xbd9f0c1e	-0.07765983
48	0x3db8fd6c	0.090327114
49	0x3e4b4248	0.19849503
50	0xbdb58c6e	-0.088646755
51	0xbe07395b	-0.13205473
52	0x3e4e69f2	0.20157602
53	0xbb34cc3a	-0.0027587549
54	0x3d97d54e	0.074137315
55	0xbdc637d6	-0.096786186
56	0x3aaa3f95	0.001298892
57	0x3caa30d8	0.020775244
58	0xbd6fd9ec	-0.058557436
59	0xbd7b127a	-0.061296917
60	0xbe319af0	-0.1734426
61	0xbdf48e03	-0.11941149
62	0xbdbe0c3d	-0.09279678
63	0x3c2ff710	0.010740057
64	0x3e4a60df	0.19763516
65	0xbd0ba41b	-0.03409205
66	0x3c4971a4	0.01229516
67	0x3d6d1600	0.05788231
68	0xbd261859	-0.040550563
69	0x3d0cccad	0.03437488
70	0x3d22b0c9	0.039719377
71	0xbe3bf993	-0.18356924
72	0xbdabe5cb	-0.08393439
73	0xbd058ab2	-0.032602973
74	0x3d1f826f	0.03894275
75	0x3b5fa393	0.0034124597
76	0x3cb9e2bb	0.022691121
77	0xbd459665	-0.04823913
78	0xbc3a3e7f	-0.011367439
79	0xbd60f250	-0.054918587
80	0x3d040b81	0.032237533
81	0x3b7f86a9	0.0038990176
82	0xbc0d1c99	-0.008612775
83	0x3e0ab15a	0.13544217
84	0x3db2a290	0.087224126
85	0xbd08b173	-0.033372354
86	0x3c8fbe11	0.017546685
87	0x3dbe89c8	0.093036234
88	0xbc92ee6d	-0.017935956
89	0x3dc3670e	0.095411405
90	0xbc986a08	-0.018605247
91	0x3c720bd8	0.014773332
92	0xbb78a20c	-0.0037938384
93	0xbc0cf302	-0.008602859
94	0xbde4c8e8	-0.11171132
95	0xbc8916c5	-0.01673449
96	0xbcb4cd5a	-0.022070576
97	0x3be8c1d2	0.0071031833
98	0xbceba250	-0.02876392
99	0xbda0bc7f	-0.07848453
100	0xbdce7d9b	-0.10082551
101	0xbda7b31d	-0.0818846
102	0x3d982b8b	0.0743018
103	0x3e3779f2	0.17917612
104	0xbbe8793e	-0.0070945313
105	0x3c82a15f	0.015946088
106	0xbc5d20b0	-0.013496563
107	0x3d368e58	0.044569343
108	0x3d545375	0.051837403
109	0x3decd8cd	0.11564789
110	0xbdb72dda	-0.08944292
111	0xbd2b88f1	-0.041878644
112	0x3d7d2117	0.061799135
113	0x3cabca41	0.020970466
114	0xbe2f8672	-0.1714113
115	0x3d1d3ad1	0.03838617
116	0xbe0ae6d0	-0.1356461
117	0xbd7f516b	-0.062333506
118	0x3c8fd28d	0.017556453
119	0x3db534f1	0.088479884
120	0x3c2ade86	0.01042903
121	0xbcc8255c	-0.024431877
122	0x3e19b138	0.1500901
123	0x3e1a8bce	0.15092394
124	0x3e3fe960	0.18741369
125	0x3d92f651	0.071758874
126	0xbdd4c1cb	-0.103885256
127	0xbd1506d0	-0.03638345

layers.4.weight f4 [9, 128]
0	0xbbb491e9	-0.005510558
1	0x387e7332	6.0665603e-05
2	0x3ca14822	0.019687716
3	0xbd1c129a	-0.038103677
4	0x3da06a20	0.07832742
5	0xbdeb91e3	-0.11502435
6	0xbdad4335	-0.08460084
7	0x3cc07400	0.023492813
8	0xbc1358bd	-0.008993325
9	0xbda484bf	-0.08033132
10	0x3d92980c	0.07157907
11	0x3de519e5	0.111865796
12	0xbd0da131	-0.034577552
13	0x3a6eb9ca	0.0009106664
14	0x3e01825b	0.12647383
15	0xbb9b4ceb	-0.004739394
16	0xbcc0083d	-0.023441428
17	0x3e0bd08c	0.13653773
18	0x3d8361cf	0.0641514
19	0x3d959691	0.07304109
20	0xbe06301d	-0.13104291
21	0x3cba2302	0.022721771
22	0xbd367f70	-0.044555128
23	0x3bcf7087	0.006330553
24	0xbd935d2a	-0.07195504
25	0x3d1a56b5	0.037680347
26	0x3c72b5e0	0.01481387
27	0xbc86d91b	-0.016460946
28	0x3de24563	0.11048391
29	0xbda83572	-0.08213319
30	0x3b1d1a6e	0.0023972052
31	0x3d98761f	0.07444405
32	0x3dba2db8	0.090907514
33	0xbded61a4	-0.11590889
34	0x3d679bf2	0.056545205
35	0x3d32376c	0.043509886
36	0xbd3defea	-0.046371378
37	0xbd9ce2a7	-0.07660418
38	0xbd96d5a2	-0.07364966
39	0xbeaaa8c2	-0.33331877
40	0xbe9d9f50	-0.30785608
41	0xbdce2e93	-0.10067477
42	0xbd76be11	-0.060239855
43	0x3e03004f	0.12793086
44	0xbd83b7f6	-0.06431572
45	0x3e21cf7c	0.15801805
46	0x3d72d8ed	0.059288908
47	0xbc7eec1c	-0.015559223
48	0xbd3eec59	-0.046612117
49	0x3e3658f1	0.17807366
50	0xbce2e628	-0.027697638
51	0xbedb4648	-0.42827058
52	0xbd35b9f9	-0.04436681
53	0xbd114727	-0.035468247
54	0x3df9efa1	0.12203909
55	0xbdff3bea	-0.124625996
56	0xbd114977	-0.035470452
57	0xbc8b179a	-0.016979028
58	0x3ddfda4c	0.10930309
59	0x3c4259fc	0.011862274
60	0xbe4b72a2	-0.19867948
61	0xbdec0c39	-0.11525769
62	0xbd983685	-0.07432274
63	0xbe343ca4	-0.17601258
64	0x3e175819	0.147797
65	0x3c8ab445	0.016931662
66	0xbd81120b	-0.063022695
67	0x3e1ffeb6	0.15624508
68	0x3ddfeddd	0.10934041
69	0x3b797de3	0.003806942
70	0xbce94a4f	-0.028477816
71	0xbe0505af	-0.1299045
72	0x3d928be0	0.07155585
73	0x3d8b8112	0.068117276
74	0xbd0d9d29	-0.034573708
75	0xbd5916e0	-0.05300033
76	0xbece3bd4	-0.4028002
77	0x3d2fcf90	0.042922556
78	0x3d78a120	0.060700536
79	0xbe31afc5	-0.17352207
80	0xbeb0b973	-0.34516487
81	0x3c42b0b3	0.011882949
82	0x3baa516a	0.0051976936
83	0x3dbd30b6	0.092378065
84	0x3c27b5bf	0.010236203
85	0x3d3e792b	0.046502274
86	0x3d3bb66c	0.045828268
87	0x3d6b05d9	0.057378624
88	0x3e082406	0.13294992
89	0x3de6198e	0.11235343
90	0x3d8b5d1d	0.06804869
91	0x3ccda816	0.025104564
92	0x3d9abd77	0.07555669
93	0x3c91f75b	0.017818144
94	0xbdda7da9	-0.10668499
95	0xbe190c36	-0.14946064
96	0xbd9afafd	-0.075674035
97	0x3d1fabdf	0.03898227
98	0xbcb76290	-0.022385865
99	0xbd405faa	-0.046966232
100	0x3d3295d0	0.043599904
101	0xbd88c56b	-0.066782795
102	0x3a87e6c1	0.0010368453
103	0x3e58a134	0.21155244
104	0x3c9d9616	0.019236606
105	0x3c782c94	0.015147347
106	0x3cb8b975	0.02254937
107	0xbd037fb3	-0.032104205
108	0x3e2a9be5	0.16661032
109	0x3e184477	0.14869867
110	0xbbae2808	-0.0053148307
111	0x3ce6fafd	0.028195852
112	0x3b0563fe	0.002035379
113	0x3cb5a3ad	0.022172773
114	0x3d42df65	0.047576327
115	0x3d8405ac	0.06446394
116	0xbdcd629c	-0.10028574
117	0xbd94e624	-0.07270458
118	0x3dba5bb0	0.09099519
119	0xbf06dea3	-0.52683467
120	0x3dc38833	0.09547462
121	0x3d1ce531	0.03830451
122	0x3d5e1746	0.054221414
123	0x3d42d01c	0.04756175
124	0x3e03ff54	0.12890369
125	0x3d5f6a6f	0.054544862
126	0xbd7c2d54	-0.061566666
127	0x3db4ae93	0.0882236
128	0xbed28e9f	-0.41124436
129	0x3dfbf589	0.123026915
130	0x3d63d2bc	0.055620894
131	0x3d65716f	0.05601638
132	0x3d501b0e	0.05080705
133	0xbd8c6193	-0.06854548
134	0x3de4b108	0.111665785
135	0xbda92eb6	-0.082608625
136	0xbd02c92d	-0.031930137
137	0xbc5ed8ff	-0.013601541
138	0xbd8b93ac	-0.068152755
139	0x3cc49f89	0.024001854
140	0x3ccf5a67	0.025311662
141	0xbd3ad3cf	-0.045612153
142	0xbe42e770	-0.19033599
143	0xbd8e2ce6	-0.069421574
144	0xbefbf437	-0.4920976
145	0x3cbca30d	0.023026967
146	0x3d3eae26	0.0465528
147	0xbe32ad15	-0.17448838
148	0x3d8efd25	0.06981877
149	0x3e0deea8	0.13860571
150	0xbd966f4d	-0.07345448
151	0xbd270eed	-0.04078572
152	0x3da3cf9a	0.07998581
153	0xbd2fc2d1	-0.0429104
154	0xbde0383d	-0.109482266
155	0xbcbfcf05	-0.023414144
156	0xbdd411ce	-0.103549585
157	0xbdc72cd1	-0.09725345
158	0x3e14b86a	0.14523473
159	0x3d33d7e1	0.04390705
160	0xbd87fb13	-0.066396855
161	0x3d342c63	0.043987643
162	0xbe16f402	-0.14741519
163	0x3c34ac01	0.011027337
164	0xbe2c35b5	-0.16817363
165	0xbdc3f12a	-0.09567483
166	0x3bc41ca3	0.005984859
167	0xbd72d505	-0.059285183
168	0x3d8812c2	0.06644203
169	0xbe02d04c	-0.12774771
170	0xbded8e08	-0.11599356
171	0x3d256c30	0.04038638
172	0x3e195195	0.14972527
173	0x3d5de43f	0.05417275
174	0x3d1e6d67	0.038678553
175	0xbe19d7b8	-0.15023696
176	0x3ca3469c	0.01993113
177	0x3e33c279	0.17554654
178	0xbc8249c5	-0.015904317
179	0x3b9ca75a	0.004780692
180	0x3e3c8c1d	0.18412824
181	0x3e10005b	0.14062636
182	0xbdcffa49	-0.1015516
183	0xbc2b2183	-0.010445002
184	0x3d2629e9	0.040567312
185	0xbcbb142b	-0.022836765
186	0xbd336235	-0.04379483
187	0xbf0ba832	-0.5455352
188	0xbe00d4cf	-0.1258118
189	0xbe3e57b9	-0.18588151
190	0x3d71f919	0.05907545
191	0x3d64da8f	0.055872496
192	0x3ddd32cf	0.108007066
193	0x3dadf20a	0.08493431
194	0x3d6e8dfd	0.05824088
195	0x3d608e12	0.05482299
196	0xbee5c807	-0.4487917
197	0x3cdea20b	0.027176877
198	0xbcca703a	-0.024711717
199	0xbe197b98	-0.14988554
200	0x3c81f8d0	0.015865713
201	0xbc37bbb2	-0.011214184
202	0x3c5f28de	0.013620583
203	0xbd228ebf	-0.039686915
204	0xbdb59a49	-0.08867318
205	0xbcc2ddcb	-0.0237874
206	0x3d839b79	0.064261384
207	0xbcac9e2e	-0.02107152
208	0xbd53a219	-0.05166826
209	0xbb4c7cf9	-0.003120242
210	0xbd2b623c	-0.04184173
211	0x3da4de83	0.08050253
212	0x3d41a1bf	0.047273394
213	0xbdf55ead	-0.119809486
214	0x3e3f23ce	0.18666002
215	0x3d6951bd	0.056962717
216	0xbdce3c5f	-0.100701086
217	0xbe136e2e	-0.14397499
218	0x3ce0202a	0.027359087
219	0x3df5bc49	0.11998803
220	0x3d9abd4e	0.07555638
221	0x3c54336e	0.012951715
222	0x3da44ac6	0.080220744
223	0x3d9fb2b3	0.07797756
224	0x3ac61279	0.0015111706
225	0x3d8feb5d	0.07027314
226	0xbdbd9bc7	-0.09258228
227	0xbc855653	-0.016276514
228	0xbd416f6c	-0.0472254
229	0xbd57ed80	-0.052716732
230	0xbc674a56	-0.014116844
231	0x3dad9dc1	0.08477355
232	0x3d9a30d3	0.07528844
233	0x3b608f7b	0.0034265209
234	0x3d5eafee	0.054367
235	0xbe8a3948	-0.26996827
236	0xbd1e1cc9	-0.03860167
237	0x3da09c7a	0.078423455
238	0xbdb090ee	-0.08621393
239	0x3da26cdf	0.07930922
240	0xbdb108b1	-0.08644236
241	0x3cfd0de5	0.030890414
242	0xbd11bbb9	-0.035579417
243	0x3d3b09fa	0.04566381
244	0xbd5e52bc	-0.05427812
245	0xbc8556b4	-0.016276695
246	0x3a9c7d1d	0.0011939142
247	0x3e0fa362	0.1402717
248	0x3d9aa78d	0.07551489
249	0xbb138542	-0.0022509848
250	0x3dbd39ca	0.09239538
251	0x3d8684ba	0.06568284
252	0x3e40041a	0.18751565
253	0x3e1e92b8	0.15485656
254	0x3d74e74d	0.059790898
255	0xbe939aca	-0.28829032

layers.4.bias f4 [9]
0	0x3c91564a	0.017741341
1	0x3d94a9bf	0.07258939
2	0x3e16f5fb	0.14742272
3	0x3da60f91	0.08108438
4	0x3d32b9aa	0.043634094
5	0x3d7d8a90	0.06189972
6	0x3e2f7394	0.17133933
7	0x3e3f5b7d	0.18687244
8	0x3e129d99	0.14317931
